MRI/tudo_test.onnx (onnx, 303803 bytes, 8 tensors)

conv1.weight f4 [16, 3, 3, 3]
0	0x3e1ceccb	0.15324704
1	0x3dbd47a8	0.09242183
2	0x3e22cf3e	0.15899369
3	0x3e2a1cad	0.16612501
4	0x3d9253f4	0.07144919
5	0xbe0b2c3f	-0.13591097
6	0x3e2c91a9	0.1685244
7	0xbe2f716f	-0.17133115
8	0xbd9c9fdc	-0.07647678
9	0x3ab841b6	0.0014057669
10	0x3e2fe86a	0.17178503
11	0x3d84fbe1	0.064933546
12	0xbe3d79f9	-0.1850356
13	0x3d0bafe9	0.034103308
14	0xbd6bcff9	-0.057571385
15	0xbd6abc2d	-0.057308365
16	0xbdcd1344	-0.1001344
17	0x3e2e6b5c	0.17033142
18	0xbc2d0de2	-0.010562392
19	0x3dcd9104	0.10037425
20	0x3df5fcac	0.12011084
21	0xbe3cfd38	-0.1845597
22	0xbe4f8992	-0.20267323
23	0x3e2a4ade	0.16630122
24	0xbcdc6f3b	-0.026908508
25	0x3e0e50a2	0.13897946
26	0x3c04802c	0.008087199
27	0xbdf10044	-0.11767629
28	0xbe1af0e6	-0.15130958
29	0x3e2544e4	0.16139561
30	0xbcc72e8b	-0.024314186
31	0x3e3fb97a	0.18723097
32	0x3c5e2b28	0.013560094
33	0xbd26995b	-0.040673595
34	0x3e455acd	0.19272919
35	0xbdb52f7a	-0.08846946
36	0x3c6a0f4e	0.0142858755
37	0x3d1be6f5	0.038062055
38	0xbd88432d	-0.06653438
39	0xbdf2419a	-0.11828919
40	0x3d988305	0.07446865
41	0xbe00706f	-0.1254289
42	0xbe1d86fd	-0.15383525
43	0xbda9e06f	-0.082947604
44	0x3e19d45c	0.15022415
45	0x3cea12c6	0.028573405
46	0x3e1c9454	0.15290958
47	0x3e377581	0.17915918
48	0xbce7e20c	-0.02830603
49	0xbe126be6	-0.14298972
50	0xbcaffcca	-0.021482844
51	0x3ca9f7eb	0.0207481
52	0xbe43e604	-0.19130713
53	0xbdbb8d01	-0.09157754
54	0x3e1a337e	0.15058705
55	0x3c61764d	0.013761115
56	0x3c8a8881	0.016910793
57	0x3e0db2fc	0.13837808
58	0xbe30d8c0	-0.17270184
59	0xbdb1ca49	-0.08681161
60	0x3ce1be96	0.027556699
61	0x3d96d488	0.07364756
62	0xbcdeb64d	-0.027186537
63	0x3da432f7	0.08017533
64	0xbe27b1cb	-0.16376416
65	0x3d7104e3	0.05884255
66	0x3d9ec72a	0.07752831
67	0x3dc0dbfc	0.09416959
68	0x3e3ede0d	0.18639393
69	0x3c91e054	0.017807163
70	0xbd62ed68	-0.05540219
71	0x3d7aa55f	0.061192866
72	0xbd2132d3	-0.03935511
73	0xbb0fd934	-0.0021949532
74	0x3e17c1a3	0.1481996
75	0x3e04f2bd	0.12983222
76	0x3e1195eb	0.14217345
77	0xbd8d9167	-0.06912499
78	0x3e0ec136	0.13940892
79	0xbdeed2c2	-0.116612926
80	0xbcc332ec	-0.023827992
81	0xba91144b	-0.001106867
82	0xbcd90675	-0.026492337
83	0xbc57431c	-0.013138559
84	0x3de3fb3c	0.111319035
85	0xbd961609	-0.073284216
86	0x3cb96684	0.022631891
87	0x3b4c0851	0.0031132887
88	0x3b1a8657	0.0023578608
89	0xbdf6b9c4	-0.12047151
90	0xbc32c89c	-0.010912087
91	0x3ce79cdb	0.028273037
92	0x3cee89b1	0.02911839
93	0x3d9496d9	0.072553344
94	0xbda0f117	-0.07858484
95	0xbce7793a	-0.028256048
96	0x3d0ec9c7	0.0348604
97	0x3da6137b	0.08109184
98	0xbdfd1bde	-0.12358831
99	0xbe2b6921	-0.16739322
100	0xbe281e91	-0.1641791
101	0x3cf53c7d	0.02993607
102	0x3d02cd60	0.031934142
103	0xbe34b549	-0.1764728
104	0xbdc9492c	-0.098284096
105	0x3dfae38c	0.12250432
106	0xbe0295a0	-0.1275239
107	0x3def9b80	0.11699581
108	0xbe0939d4	-0.13400966
109	0xbe00c6c2	-0.1257582
110	0x3ce541eb	0.027985534
111	0xbe46c13a	-0.19409648
112	0xbe3140e6	-0.17309913
113	0xbd220e7f	-0.039564606
114	0x3d3da3e1	0.046298865
115	0x3d0c35a0	0.03423083
116	0xbe4d6d2c	-0.20061177
117	0x3d98384f	0.07432615
118	0x3c8f2417	0.017473264
119	0xbd8ac829	-0.06776459
120	0xbdacd3bf	-0.08438825
121	0x3d9a49a4	0.07533577
122	0xbd90374d	-0.07041798
123	0xbe10d4f8	-0.14143741
124	0x3c494137	0.012283615
125	0x3d8c3a58	0.06847066
126	0xbe2c7faa	-0.16845575
127	0xbdaea87e	-0.08528231
128	0xbdd77d61	-0.10521961
129	0x3df50ea7	0.11965685
130	0xbd0fc5f6	-0.0351009
131	0xbdd47d70	-0.10375488
132	0xbda808ae	-0.082047805
133	0xbd8f0924	-0.06984165
134	0xbd0d31cd	-0.03447132
135	0xbdc76a71	-0.09737099
136	0xbcb41d26	-0.021986555
137	0x3dc081fb	0.09399792
138	0x3d13e7ba	0.036109664
139	0x3d593efd	0.053038586
140	0xbe242a64	-0.16031796
141	0xbd84f1da	-0.06491442
142	0x3e2b3e01	0.16722871
143	0xbe1cb973	-0.15305118
144	0x3b8056ff	0.0039166207
145	0x3e32ce35	0.17461474
146	0xbd953853	-0.072861336
147	0x3d70e451	0.05881149
148	0xbca06447	-0.019579066
149	0xbe335be7	-0.17515527
150	0xbc955253	-0.018227732
151	0xbdd1d31d	-0.10245345
152	0xbe2441c9	-0.1604072
153	0xbcd458a0	-0.025921166
154	0x3e26a053	0.16272096
155	0xbd4e5bc1	-0.050380472
156	0xbe22d467	-0.15901338
157	0x3e324922	0.1741071
158	0x3d1080bf	0.03527903
159	0xbd69aada	-0.057047702
160	0xba827a0d	-0.0009954587
161	0xbc474a76	-0.012163749
162	0x3d2671c5	0.040635843
163	0x3e31fa89	0.17380728
164	0xbd2c31c2	-0.04203964
165	0x3e47a3ff	0.19496153
166	0x3d932828	0.071853936
167	0x3e4654a3	0.19368224
168	0x3e3847d2	0.17996147
169	0x3debb223	0.11508586
170	0xbd28f14d	-0.041245747
171	0xbc5c73ef	-0.013455375
172	0x3d3a8021	0.04553235
173	0x3de6f61f	0.112774126
174	0xbd01453b	-0.031560164
175	0xbe23cf25	-0.15996988
176	0x3d211507	0.039326694
177	0x3cf03692	0.029322896
178	0x3e07e115	0.13269456
179	0xbcfbbfbd	-0.030731076
180	0x3d9f70c9	0.07785184
181	0xbe2f254d	-0.17104073
182	0xbcfc81da	-0.030823637
183	0xbe0fb63d	-0.14034362
184	0xbe3a2220	-0.1817708
185	0xbdc7a3a2	-0.09748007
186	0x3d7261cc	0.059175298
187	0xbc19ad31	-0.009379671
188	0xbd6967c7	-0.056983735
189	0xbc860645	-0.016360411
190	0xbc0bea6f	-0.00853978
191	0xbe4ab319	-0.19794883
192	0x3dde4197	0.10852354
193	0xbdda9ca5	-0.10674409
194	0xbe022184	-0.12708098
195	0xbe2f9ddc	-0.17150062
196	0xbd9e54e7	-0.077310376
197	0xbe3a9310	-0.18220162
198	0x3da81cef	0.08208644
199	0xbdb4e58f	-0.08832847
200	0xbe214ecc	-0.15752715
201	0xbe163855	-0.14669926
202	0x3d78b523	0.06071962
203	0x3e2fb3f9	0.17158498
204	0xbd24d5cc	-0.040242955
205	0x3bbbd02f	0.0057316045
206	0x3e27b2c4	0.16376787
207	0x3e18631c	0.14881557
208	0x3e18f1ca	0.14935985
209	0xbdfc18fb	-0.12309452
210	0x3dcb97de	0.09941076
211	0xbbe6c2e5	-0.007042276
212	0xbd9477c5	-0.07249407
213	0xbdaedb7f	-0.08537959
214	0xbd986789	-0.07441623
215	0xbe36b2ef	-0.17841695
216	0x3ce1082d	0.027469719
217	0x3e00c0b6	0.12573513
218	0x3d9d87d3	0.07691922
219	0xbd5442fc	-0.051821694
220	0xbd10a5bf	-0.035314318
221	0xbe1cbfb3	-0.15307502
222	0x3d11001a	0.035400487
223	0xbe676bf0	-0.22599769
224	0xbd740406	-0.05957415
225	0x3da0a9bd	0.07844875
226	0x3c897b63	0.016782468
227	0xbe16ad40	-0.14714527
228	0xbde9d464	-0.114174634
229	0xbda1a144	-0.07892087
230	0xbd39252f	-0.045201477
231	0x3d0e5511	0.034749094
232	0x3dc6260d	0.09675226
233	0x3ba32531	0.004978799
234	0x3e2ed9a1	0.17075206
235	0xbdf72ab5	-0.120686926
236	0x3ab1b04e	0.0013556571
237	0xbdbc2a98	-0.091878116
238	0x3e45e072	0.193239
239	0xbd933c62	-0.071892515
240	0x3e1d8a42	0.15384772
241	0xbe461a23	-0.19345908
242	0xbe0f3718	-0.1398586
243	0xbc474dad	-0.012164515
244	0xbc36c761	-0.011155934
245	0x3df03708	0.117292464
246	0x3e02d673	0.12777118
247	0xbe05bfab	-0.13061397
248	0xbdd8cc11	-0.105857976
249	0x3e11a4c1	0.14223005
250	0xbd4125d0	-0.0471552
251	0x3e18c6bd	0.14919563
252	0xbdff4443	-0.12464192
253	0xbb0fe784	-0.0021958062
254	0xbe1724cb	-0.14760129
255	0x3d5cf54d	0.053944875

conv1.bias f4 [16]
0	0xbe4d43e2	-0.20045426
1	0x3dd06111	0.10174764
2	0xbb3eb064	-0.0029096836
3	0xb9b94e06	-0.00035344082
4	0x3e12d4f8	0.14339054
5	0xbe2266fc	-0.15859598
6	0x3c7ef4af	0.015561267
7	0x3da6093b	0.08107229
8	0xbc0333c9	-0.008007952
9	0x3db29523	0.08719852
10	0x3d8e0c26	0.06935911
11	0x3dd2a065	0.10284499
12	0xbe33b8cd	-0.17550965
13	0xbde94c10	-0.11391461
14	0x3d959df1	0.073055156
15	0xbe065773	-0.13119297

conv2.weight f4 [32, 16, 3, 3]
0	0xbd329f74	-0.043609098
1	0xbd36e20f	-0.04464918
2	0xba959767	-0.0011412919
3	0xbc9fe65f	-0.01951903
4	0x3c8e51d2	0.017373
5	0x3d937e9e	0.07201885
6	0xbda8a907	-0.082353644
7	0x3d1ebb75	0.03875299
8	0xbd4f9ff9	-0.05068967
9	0xbcf5896c	-0.029972754
10	0x3d4e3377	0.05034205
11	0x3c317599	0.01083126
12	0xbd9aef50	-0.075651765
13	0x3d842638	0.06452602
14	0xbd8fa1e7	-0.07013302
15	0x3d6b5069	0.057449732
16	0xbcbb8956	-0.022892635
17	0xbd3abc4a	-0.045589723
18	0xbd307890	-0.043083727
19	0x3d21de18	0.039518446
20	0x3d83e4ac	0.064401
21	0xbd926fc6	-0.07150225
22	0xbdb14468	-0.086556256
23	0x3d78108b	0.06056265
24	0xbc7399c6	-0.014868205
25	0x3c81bec2	0.01583803
26	0x38ecf8f2	0.000112997266
27	0x3d58b74b	0.052909177
28	0x3d0d6bb8	0.034526557
29	0xbd90b025	-0.07064847
30	0xbcae0f35	-0.021247486
31	0xbb7451fc	-0.0037280312
32	0xbbbf422f	-0.005836747
33	0xbda068b5	-0.07832471
34	0x3c2042f2	0.009781586
35	0x3d8ce402	0.068794265
36	0xbcf74373	-0.03018353
37	0xbc43041f	-0.011902838
38	0x3d264b02	0.040598877
39	0xbc9cdfe2	-0.019149724
40	0x3d46ee61	0.04856718
41	0x3c8c258d	0.01710775
42	0xbd7f7c42	-0.06237436
43	0xbca83fba	-0.0205382
44	0x3cf27a9e	0.029599484
45	0x3d0245c4	0.031804815
46	0xbdb47785	-0.08811859
47	0x3c6fe6e5	0.014642452
48	0x3d747a86	0.05968716
49	0xbdaf9201	-0.0857277
50	0x3c5ac60a	0.01335288
51	0x3d1a9081	0.037735466
52	0x3d89e9b6	0.0673403
53	0x3d5908d7	0.052986946
54	0xbc530d9b	-0.012881662
55	0x3d2026c8	0.039099485
56	0xbd41b944	-0.047295824
57	0x3d3864c4	0.045017973
58	0x3c868bae	0.016424026
59	0xbd358957	-0.04432043
60	0x3b8556f7	0.004069205
61	0x3d19c9ad	0.03754585
62	0xbc19bb1e	-0.009382991
63	0xbbd93324	-0.006628411
64	0x3ce213be	0.027597304
65	0x3c25665e	0.010095207
66	0xbd183298	-0.037157625
67	0x3cc378b9	0.023861276
68	0x3ced30f2	0.028954003
69	0xbd4ab0bb	-0.04948495
70	0xbd23d8d4	-0.040001705
71	0xbc14eabd	-0.009089169
72	0xbda25afd	-0.07927511
73	0xbc71c83d	-0.014757213
74	0xbda36028	-0.07977325
75	0x3d79ef16	0.061019026
76	0xbd0be459	-0.034153316
77	0xbd4d3320	-0.050097585
78	0x3c9b7269	0.018975453
79	0x3b169f4a	0.0022983127
80	0xbd3a8c66	-0.04554405
81	0xbd603a01	-0.054742817
82	0xbcc06c14	-0.023489036
83	0x3d4c8bea	0.04993812
84	0x3d6641e1	0.05621517
85	0xbd377fd8	-0.044799656
86	0x3d2315f6	0.039815865
87	0xbda5f836	-0.08103983
88	0xbd5c5901	-0.05379582
89	0x3d84a326	0.064764306
90	0xbc997fdb	-0.018737724
91	0x3c438c4a	0.011935303
92	0xbd9b6811	-0.075882085
93	0x3d8292d9	0.06375665
94	0x3c8f7ed1	0.017516525
95	0x3d481c6c	0.04885523
96	0xbd3ef460	-0.046619773
97	0x3c80cda4	0.015723057
98	0x3d21286d	0.039345194
99	0xbc982f3a	-0.018577207
100	0xbcc37120	-0.023857653
101	0xbc491131	-0.012272165
102	0x3c88f756	0.016719501
103	0xbd47b8b9	-0.04876015
104	0xbdbb48c7	-0.091447406
105	0xbce6d045	-0.028175483
106	0x3d911c04	0.07085422
107	0xbd2c4fe5	-0.04206838
108	0x3cd10003	0.0255127
109	0xbbf87d2e	-0.007583282
110	0x3cc9c9b2	0.024632309
111	0x3d920993	0.071307324
112	0x3cea548a	0.028604764
113	0xbc8524be	-0.016252872
114	0xbd10e172	-0.03537125
115	0x3c591028	0.013248481
116	0xbd400d0e	-0.04688745
117	0x3cb603a5	0.022218535
118	0x3d830ead	0.063992836
119	0xbc92fb59	-0.017942118
120	0x3c03f430	0.008053824
121	0x3c02e713	0.007989663
122	0x3b1bd262	0.002377652
123	0x3d655690	0.055990756
124	0x3ca28621	0.019839348
125	0x3d186f1a	0.03721533
126	0xbccff391	-0.025384696
127	0x3d189f1d	0.037261117
128	0xbdb03951	-0.08604682
129	0x3d99be14	0.07506958
130	0xbd6be477	-0.057590928
131	0xbd11a0e1	-0.035553817
132	0xbcf947e4	-0.030429788
133	0x3d6e2445	0.058140058
134	0x3d92bf3d	0.07165382
135	0xbd0da49a	-0.034580804
136	0xbc96a059	-0.018387007
137	0xbd10db2b	-0.035365265
138	0xbc8ae308	-0.01695396
139	0xbcb5f3df	-0.022211013
140	0x3d12286b	0.035683077
141	0xbc023b3d	-0.007948694
142	0x3d59e047	0.053192403
143	0x3cfea3d8	0.031083986
144	0x3c4ec32a	0.012619773
145	0xbda9d8a6	-0.082932755
146	0x3d86ed19	0.065881915
147	0xbca675b4	-0.020319797
148	0xbd3d707b	-0.046249848
149	0x3d77ad7d	0.060468186
150	0xbd8f707f	-0.07003879
151	0xbd194a27	-0.037424233
152	0xbd542bf9	-0.051799748
153	0x3da8508b	0.08218487
154	0x3c5c9b72	0.013464795
155	0xbd93b70f	-0.0721265
156	0xbb7e3e7e	-0.0038794572
157	0xbce1a741	-0.027545573
158	0xbd6f93ea	-0.05849067
159	0x3d25dc9a	0.040493585
160	0xbd2f8e63	-0.0428604
161	0x3d75896f	0.05994552
162	0xbd1f031a	-0.038821317
163	0x3d9300a1	0.07177854
164	0xbd262d47	-0.040570524
165	0x3c8a0a82	0.016850714
166	0x3d2e244f	0.042515095
167	0x3d70e415	0.058811266
168	0x3c9acc9d	0.018896395
169	0x3d1f9ef2	0.03896994
170	0xbd0c8e01	-0.034315113
171	0x3cbf16c6	0.023326289
172	0xbd0b49f2	-0.034006067
173	0xbc81f0ed	-0.015861953
174	0xbd9ba980	-0.07600689
175	0xbc9af6cd	-0.018916512
176	0xbcfc7f0c	-0.0308223
177	0xbd85b57a	-0.065287545
178	0x3d65a250	0.056062996
179	0x3c238c4c	0.00998218
180	0xbd110e24	-0.035413876
181	0x3ccccbbe	0.024999496
182	0xbcd09a02	-0.025464062
183	0x3cb98998	0.022648618
184	0xbd6e2c78	-0.058147877
185	0xbd97944b	-0.074013315
186	0x3d3a809f	0.04553282
187	0xbdb8929f	-0.09012341
188	0xbcb7dc6d	-0.022443974
189	0xbcc4e45f	-0.024034677
190	0xbc543fef	-0.012954696
191	0x3d77af36	0.06046983
192	0xbd7c9db6	-0.061673842
193	0x3d422747	0.04740074
194	0x3b6fbf97	0.0036582702
195	0xbd88be4f	-0.066769235
196	0xbd068170	-0.032838285
197	0xbc475a64	-0.012167547
198	0xbd3fa2f5	-0.046786267
199	0xbda84004	-0.08215335
200	0xbc36e4a4	-0.011162911
201	0x3d72df92	0.059295245
202	0xbdb84e98	-0.089993656
203	0x3d50c8df	0.050972816
204	0x3d2cbc1a	0.042171575
205	0xbccc19ac	-0.024914585
206	0xbd215edf	-0.039397117
207	0xbda3b358	-0.079931915
208	0x3d8205f7	0.06348794
209	0xbdc1d11c	-0.094637126
210	0xbc263338	-0.010144047
211	0xbca6f4ca	-0.020380396
212	0x3d8b54f0	0.0680331
213	0xbcbdde72	-0.02317736
214	0xbcd88260	-0.026429355
215	0x3c88a7b3	0.016681528
216	0xbc9f9d9a	-0.01948433
217	0x3d010b13	0.0315047
218	0x3d4a6d2a	0.049420513
219	0x3bbd85ce	0.005783773
220	0xbd853063	-0.0650337
221	0xbd852618	-0.065014064
222	0xbda98c01	-0.08278657
223	0x3d6dfc70	0.05810207
224	0x3d85656e	0.06513487
225	0x3d440124	0.04785265
226	0x3d0a46c8	0.03375891
227	0x3d3e6e29	0.046491776
228	0xbbc60267	-0.006042767
229	0x3d7800ac	0.060547516
230	0xbcbdce44	-0.023169644
231	0x3d17e0dd	0.03707968
232	0x3d9f46e7	0.077771954
233	0xbd3b2d34	-0.045697406
234	0x3c0e31d8	0.008678876
235	0xbcacabe0	-0.02107805
236	0xbcbfcb62	-0.02341241
237	0x3d8f65be	0.07001828
238	0x3cb8312c	0.022484384
239	0x3aef730d	0.0018268541
240	0xbd0b7f1c	-0.034056768
241	0xbc28c595	-0.0103010135
242	0xbc6e3c47	-0.014540738
243	0xbdb28cab	-0.087182365
244	0x3caa52ae	0.020791378
245	0x3cdd3912	0.027004752
246	0xbd8a3807	-0.067489676
247	0xbd00f274	-0.03148122
248	0xbc978aa1	-0.01849872
249	0xbd2d9ef4	-0.042387918
250	0x3d65d503	0.056111347
251	0x3c981fb1	0.0185698
252	0x3d08839d	0.03332864
253	0xbd9f774b	-0.07786425
254	0xbcbf1939	-0.023327457
255	0xbd89f030	-0.06735265

conv2.bias f4 [32]
0	0xba855bbb	-0.0010174433
1	0x3ca8a57d	0.020586723
2	0x3d79e42d	0.06100862
3	0xbd5ec51f	-0.054387208
4	0x3decc5f7	0.11561196
5	0xbc3c9937	-0.011511139
6	0xbd8a0fb3	-0.06741276
7	0xbd1e884f	-0.038704213
8	0xbd78c4b0	-0.06073445
9	0xbd265e09	-0.040617023
10	0xbdccc660	-0.099987745
11	0x3ccf220f	0.025284795
12	0x3b4fcad1	0.0031706581
13	0x3d039774	0.03212686
14	0x3d197dfa	0.037473656
15	0xbb01e58e	-0.0019820663
16	0x3d9dae78	0.07699293
17	0x3d1fc33c	0.03900455
18	0xbca8aaa6	-0.020589184
19	0xbd3ec4a3	-0.046574246
20	0xbbd64621	-0.0065391217
21	0x3d86ddb1	0.06585253
22	0xbd94ee90	-0.07272065
23	0xbd0cef0d	-0.034407664
24	0x3c830113	0.015991723
25	0x3d859999	0.06523437
26	0xbcfe9aa5	-0.0310796
27	0xbd0851da	-0.033281185
28	0x3d4685d8	0.048467487
29	0x3c704d3e	0.0146668535
30	0x3ca6184a	0.020275254
31	0xbdb9a58a	-0.09064777

conv3.weight f4 [32, 32, 3, 3]
0	0x3d077052	0.0330661
1	0x3cc95287	0.024575485
2	0xbd552178	-0.05203387
3	0x3ba12aec	0.0049184468
4	0x3cdb2b2b	0.026753983
5	0xbc0a9abe	-0.008459745
6	0x3b8c0af4	0.0042737667
7	0x3d03b293	0.032152724
8	0xbc65bd45	-0.014022176
9	0xbc589d56	-0.013221106
10	0xbd6998ae	-0.057030372
11	0xbd2e40a5	-0.04254212
12	0x3cdbf895	0.026851932
13	0x3d438c11	0.047741
14	0x3c75860e	0.014985574
15	0xbcd74867	-0.026279641
16	0x3ce3351b	0.027735284
17	0x3d2796c0	0.04091525
18	0x3d361e0c	0.04446225
19	0x3d101220	0.035173535
20	0xbd8b74c9	-0.068093844
21	0x3d0a7961	0.033807162
22	0xbd8b6072	-0.06805505
23	0x3d24ec9d	0.040264715
24	0xbd7fcaed	-0.062449384
25	0x3cecbc0b	0.02889826
26	0xbd6d1b72	-0.057887502
27	0x3bd4ea41	0.006497652
28	0xbc368e5c	-0.01114234
29	0x3d07d229	0.03315941
30	0x3b9f1bcf	0.00485561
31	0xbd86d45c	-0.06583473
32	0x3d0e0693	0.03467424
33	0x3c74e8b7	0.014948062
34	0x3cb40cc5	0.021978745
35	0x3d38a0eb	0.04507534
36	0xbd7013bf	-0.05861258
37	0xbc422211	-0.011848942
38	0x3b826eba	0.003980485
39	0xbc42411e	-0.011856345
40	0xbd29e512	-0.041478224
41	0x3c9054d7	0.01761858
42	0xbd47b824	-0.048759595
43	0x3d4195d9	0.047262046
44	0xbd50fac7	-0.05102041
45	0x3b9082f3	0.0044101416
46	0xbd85e2c6	-0.06537394
47	0xbbf3a468	-0.0074353702
48	0x3d42e226	0.047578953
49	0xbd1abd75	-0.037778337
50	0x3ce02c30	0.02736482
51	0x3b8bd7a6	0.0042676507
52	0x3d10a4a9	0.035313282
53	0x3c517bfb	0.012785907
54	0x3cd5cd9c	0.026099019
55	0x3b7fb2d4	0.0039016502
56	0xbd666ca7	-0.056255963
57	0xbd42349f	-0.047413465
58	0xbcc3ef82	-0.023917917
59	0xbd391809	-0.045188937
60	0x3d2e5f2e	0.04257124
61	0xbd70f7a2	-0.05882991
62	0x3ce48d2c	0.027899347
63	0xbd687e53	-0.056761097
64	0xbd27e616	-0.04099091
65	0xbc3c6571	-0.011498795
66	0xbc394981	-0.011309029
67	0x3d01a762	0.03165377
68	0xbcb282a5	-0.021790812
69	0xbcf790e3	-0.030220455
70	0x3d0a078a	0.033698596
71	0x3cf9128d	0.030404354
72	0xbd279706	-0.04091551
73	0x3cd7130f	0.026254205
74	0xbd4f7949	-0.050652776
75	0x3bb3a5ad	0.0054823966
76	0x3c7e50d6	0.0155222025
77	0xbd07919e	-0.033097856
78	0xbd1962f8	-0.0374479
79	0x3be2e1de	0.006923898
80	0xbd5edcd4	-0.054409817
81	0xbd4417ae	-0.047874145
82	0x3cd06d27	0.025442673
83	0xbcfb8998	-0.030705258
84	0xbd7a5189	-0.061112914
85	0xbd55f179	-0.05223224
86	0x3a3a576f	0.00071083655
87	0xbc89497b	-0.016758671
88	0xbc498f42	-0.012302222
89	0xbd7b8d90	-0.0614143
90	0x3bfd55e3	0.0077311858
91	0xbd8064ed	-0.0626925
92	0xbd18e5e4	-0.037328616
93	0xb90761bb	-0.0001291101
94	0xbd471cee	-0.048611574
95	0x3d0a486b	0.03376047
96	0x3d1237ad	0.035697628
97	0xbca974b5	-0.020685533
98	0x3d1bcbfa	0.038036324
99	0xbcd2ce2c	-0.025733076
100	0xbd31c857	-0.04340395
101	0xbd787043	-0.060653936
102	0xbce9286c	-0.028461657
103	0xbbb77d81	-0.005599678
104	0x3d2f73a9	0.04283491
105	0xbd16e795	-0.036841948
106	0x3b8c1a24	0.004275577
107	0xbd8681b5	-0.065677084
108	0xbd0ff594	-0.03514631
109	0x3c7f6a3a	0.015589291
110	0xbd45d645	-0.048300046
111	0x3c81ca9e	0.015843686
112	0x3c6190c0	0.013767421
113	0xbd7aa70a	-0.061194457
114	0xbc3278ed	-0.010893089
115	0xbd072905	-0.032998104
116	0x3c1e627f	0.009667038
117	0x3ccf522f	0.025307743
118	0x3d3a9509	0.045552287
119	0xbc3ffd8b	-0.011718164
120	0x3d36e24d	0.04464941
121	0xbce1c7dd	-0.027561123
122	0xbccb0917	-0.024784608
123	0xbcc1132d	-0.023568714
124	0x3b7712c8	0.0037700403
125	0x3c98a355	0.01863257
126	0xbc91d4da	-0.01780169
127	0xbd25f77d	-0.040519226
128	0xbc2f9fea	-0.010719279
129	0xbcc6fcac	-0.024290405
130	0xbd863599	-0.06553192
131	0x3cacfd96	0.021117013
132	0xbd07a98d	-0.03312068
133	0x3bc4e9e3	0.006009327
134	0xbd637914	-0.05553539
135	0xbcebd5cd	-0.028788472
136	0xbd648c35	-0.055797774
137	0x3c431dd5	0.011908968
138	0x3ce0d84d	0.02744689
139	0x3d243420	0.040088773
140	0xbd0c20f0	-0.0342111
141	0x3c9111ba	0.017708648
142	0x3c9fc1ef	0.019501654
143	0xbd769e43	-0.060209524
144	0xbd4d395f	-0.05010354
145	0x3c42a2d7	0.011879644
146	0xbd5a4957	-0.0532926
147	0xbd529933	-0.051415633
148	0xbd37181b	-0.044700723
149	0x3be5d862	0.00701432
150	0xbd88547d	-0.0665674
151	0xbd90042b	-0.07032045
152	0x3bcd92d5	0.0062736073
153	0xbd37d621	-0.044881944
154	0x3cc35f52	0.023849163
155	0xbd09dcfa	-0.033658005
156	0x3d4361ef	0.04770082
157	0x3a6319bc	0.00086631975
158	0x3d1d8805	0.038459796
159	0xbd2bf084	-0.04197742
160	0xbccbfc15	-0.024900476
161	0x3b38acf4	0.002817926
162	0xbc81367c	-0.01577305
163	0xbcc128c2	-0.023579005
164	0x3cda6c51	0.026662977
165	0x3cc3392b	0.02383097
166	0xbd8c0d79	-0.06838507
167	0xbd5bb301	-0.05363751
168	0xbd1eb12f	-0.038743194
169	0xbd2ee6b4	-0.042700484
170	0x3b03ebe5	0.0020129618
171	0xbd752d58	-0.059857696
172	0xbc160c1d	-0.0091581615
173	0xbc0d5003	-0.008625033
174	0x3caf35b0	0.021387905
175	0x3d0f586b	0.03499643
176	0xbb9f15ba	-0.004854885
177	0x3d4ebbee	0.050472192
178	0xbd01efed	-0.03172295
179	0xbc3e5421	-0.011616738
180	0xbd6d2487	-0.057896163
181	0xbd088102	-0.033326156
182	0xbca5e7eb	-0.020252189
183	0xbd645c58	-0.05575213
184	0xbb917f87	-0.0044402513
185	0x3d355cf8	0.044278115
186	0x3d241e64	0.040068045
187	0xbd6f9f21	-0.058501367
188	0xbd3d0409	-0.046146426
189	0xbd3eba28	-0.04656425
190	0xbd5e6a86	-0.054300807
191	0xbd5a3005	-0.05326845
192	0x3c48a7e7	0.012247062
193	0xbd319cb9	-0.043362353
194	0x3ce09003	0.02741242
195	0x3d22d3db	0.039752822
196	0xbd1f3561	-0.038869265
197	0xbcadad2b	-0.021200737
198	0xbd135ef8	-0.03597924
199	0x3d06ab0a	0.03287796
200	0x3bf44d87	0.007455531
201	0xbc1327d8	-0.008981667
202	0x3ce27ed9	0.027648376
203	0x3c3df81a	0.011594797
204	0xbd0cf7c8	-0.03441599
205	0xbc85e833	-0.016346073
206	0x3c607978	0.013700835
207	0xbd40662a	-0.04697243
208	0x3d483b67	0.048884775
209	0xbd432c7c	-0.047649845
210	0x3d0ae69e	0.03391134
211	0xbced6ad8	-0.028981611
212	0xbd859449	-0.06522424
213	0xbc696307	-0.014244801
214	0x3c7fd673	0.0156150935
215	0x3d2adbeb	0.041713636
216	0xbd89ab5f	-0.067221396
217	0xbcf92e6f	-0.03041765
218	0x3d11f9e1	0.035638694
219	0xbbce0dd6	-0.0062882705
220	0xbc81f28a	-0.015862722
221	0x3c3467f5	0.011011113
222	0xbd6bd155	-0.05757268
223	0x3c3ede84	0.011649732
224	0xbd78a9ee	-0.060708933
225	0x3ca76572	0.020434115
226	0x3c62db18	0.013846181
227	0xbd89aaa5	-0.06722001
228	0x3a620aaf	0.0008622808
229	0x3ce027f6	0.027362805
230	0x3d2505d4	0.04028876
231	0xbd72e8be	-0.05930399
232	0x3d1149a0	0.035470605
233	0xbc335de5	-0.010947679
234	0xbcce94fd	-0.025217528
235	0xbc913c3f	-0.017728923
236	0x3cb3de64	0.02195663
237	0xbd7f7e09	-0.062376056
238	0xbc4d627c	-0.012535688
239	0x3cd4fc61	0.02599925
240	0x3ce6075e	0.028079685
241	0xbcd4456d	-0.025912011
242	0xbc0bda33	-0.0085359095
243	0xbd364069	-0.04449502
244	0x3cedf454	0.029047169
245	0x3bf65061	0.007516906
246	0xbc4d3d17	-0.012526772
247	0x3d19d177	0.037553277
248	0x3c729215	0.0148053365
249	0xbd77eadd	-0.060526717
250	0xbd88a892	-0.06672777
251	0xbd8b8073	-0.06811609
252	0xbc7c70b5	-0.015407731
253	0xbc61542b	-0.013752977
254	0xbd78253c	-0.060582384
255	0x3d3ef078	0.046616048

conv3.bias f4 [32]
0	0xbd16618e	-0.03671413
1	0x3c666b1f	0.014063626
2	0xbd111bdf	-0.03542697
3	0x3c325e29	0.010886707
4	0xbcefe6fb	-0.029284945
5	0xbd072ab1	-0.032999698
6	0xbc1eec97	-0.009699962
7	0x3cb6ec21	0.022329392
8	0xbd0edf18	-0.034880728
9	0xbb96f999	-0.004607391
10	0x3d2016a6	0.0390841
11	0xbc0c6a5c	-0.00857028
12	0xbc9943c7	-0.018709077
13	0x3ccd331a	0.025048781
14	0x3cb6802a	0.02227791
15	0xbd13b289	-0.036058936
16	0xbd585e1c	-0.052824125
17	0x3d157932	0.036492534
18	0xbc288ec3	-0.010287943
19	0xbd531b79	-0.05153987
20	0xbc95e0e3	-0.01829571
21	0x3ccfcc4a	0.025365967
22	0xbd22fbe9	-0.03979102
23	0xbcc1bf41	-0.023650767
24	0xbc65b55d	-0.014020291
25	0xbd0f72a1	-0.035021428
26	0xbc64246d	-0.0139247
27	0xbd8a3b01	-0.06749535
28	0x3bb51176	0.005525763
29	0xbcc8bec5	-0.024505029
30	0xbcaf66b2	-0.021411274
31	0x3d74c9c0	0.059762716

fc.weight f4 [2, 25088]
0	0xbbc5c2fa	-0.006035206
1	0xbb7b9371	-0.0038387442
2	0xbb2e2038	-0.0026569497
3	0xbb152c68	-0.0022762064
4	0xba54f385	-0.00081234454
5	0xbb1d8693	-0.0024036511
6	0xb9a5f15c	-0.0003165108
7	0xbc076ae3	-0.00826523
8	0xbbcb836e	-0.006210736
9	0x3b2bb780	0.0026201904
10	0xbb212594	-0.0024589049
11	0xbc0151ed	-0.007893068
12	0xbbd1942a	-0.0063958364
13	0xbb69c3ff	-0.0035669801
14	0xbbe06c45	-0.0068488442
15	0x3a89c613	0.0010511301
16	0x3b33b819	0.0027422963
17	0xbaf35300	-0.0018564165
18	0xb938dca8	-0.00017629808
19	0xbc15d9b7	-0.009146146
20	0x3b4ccdf4	0.0031250687
21	0xbbc5c2bd	-0.0060351775
22	0x3b154aa6	0.002278009
23	0x3b453095	0.0030088772
24	0xbbd52a07	-0.006505254
25	0x3a819868	0.000988734
26	0xb9901d6b	-0.00027487738
27	0x3b55e202	0.0032635932
28	0xbbc31e39	-0.0059545306
29	0x3934d8ad	0.00017246856
30	0xbbe9f407	-0.007139686
31	0xbbfb2266	-0.0076640127
32	0xbbcb857f	-0.0062109823
33	0xba012d55	-0.00049277145
34	0xbc129d97	-0.008948705
35	0xbbf58571	-0.007492714
36	0xbb85f40b	-0.00408793
37	0xbc0cc4ac	-0.008591812
38	0xbc05551f	-0.00813797
39	0xbaf32954	-0.0018551745
40	0xbbb53f17	-0.0055312025
41	0x3a2dcb4d	0.00066297204
42	0xbc0aaff2	-0.0084648
43	0x3b6d7270	0.003623154
44	0xbb88ef7c	-0.0041789394
45	0xbbe1704b	-0.0068798414
46	0xbb87e1b0	-0.004146777
47	0xbb8f5871	-0.0043745567
48	0xbb935886	-0.004496637
49	0xbb13f387	-0.0022575574
50	0xbbacc659	-0.0052726683
51	0xbbc3387a	-0.0059576603
52	0x3b02bdf5	0.001994965
53	0xbbeebd5a	-0.007285756
54	0xbb851aa9	-0.004062016
55	0xba1e55fb	-0.0006040034
56	0x3aa283aa	0.0012398858
57	0xbbf283e8	-0.0074009784
58	0xbbadd5fc	-0.00530505
59	0xbbf2757a	-0.007399258
60	0xbbe14eb4	-0.006875837
61	0xba94bdeb	-0.0011348104
62	0xb89ac42f	-7.379834e-05
63	0xbb0f2c34	-0.0021846415
64	0xbac740cf	-0.001520181
65	0xbb840226	-0.0040285764
66	0xbbb4a5fb	-0.0055129505
67	0x3b730f74	0.0037088068
68	0x3b9365d0	0.004498221
69	0xbb5c59ce	-0.0033622864
70	0x3a85bcee	0.00102034
71	0x3b4fe5e0	0.003172271
72	0x3bd57fe0	0.006515488
73	0xbac84302	-0.0015278759
74	0x3b131eab	0.00224487
75	0xbaa00916	-0.0012209739
76	0xbb2a7b09	-0.0026013276
77	0xbbf8a3ce	-0.0075878864
78	0xba41fc79	-0.0007399987
79	0xb79cdc85	-1.8699337e-05
80	0xbb00a35c	-0.001962862
81	0xbbc24a48	-0.005929265
82	0xb90467bd	-0.00012627146
83	0x374c3204	1.2170993e-05
84	0xbb826956	-0.003979842
85	0xbb15cd4b	-0.002285796
86	0xbc2e9b1a	-0.010657096
87	0xbc1872c8	-0.00930471
88	0xbbf026a5	-0.0073288255
89	0xbc26c475	-0.010178675
90	0xbbf96631	-0.007611059
91	0x3b18aebf	0.0023297516
92	0xb78b97f1	-1.6640844e-05
93	0xbaec101d	-0.0018010173
94	0xbbe440c5	-0.006965729
95	0x3b6262bb	0.0034543711
96	0x3b655af8	0.0034996849
97	0xbb18a8d0	-0.002329398
98	0x3b89adae	0.0042016124
99	0x3a86ff99	0.0010299563
100	0xbb7b4bdc	-0.0038344776
101	0xba21d193	-0.00061728916
102	0x3bc5a02e	0.006031058
103	0x3b71e9c7	0.0036913024
104	0xbbc04950	-0.0058681145
105	0xbbb6d6fd	-0.005579828
106	0x3a7e5229	0.0009701574
107	0x3ad399da	0.0016143874
108	0x3933243d	0.0001708427
109	0x3a7f3fed	0.0009737004
110	0xba18f4d1	-0.00058348203
111	0xbbe27cce	-0.0069118505
112	0xbb7b98af	-0.0038390567
113	0xbc1ef0a8	-0.009700932
114	0xbbf0a0d7	-0.0073433924
115	0xbbce125f	-0.006288811
116	0xbb7f1f87	-0.0038928704
117	0xbbe7186a	-0.007052471
118	0xb95093dd	-0.00019891509
119	0x3af07e03	0.0018348101
120	0xbb0764b9	-0.00206594
121	0xbbe5e663	-0.0070159896
122	0xbaa17023	-0.0012316745
123	0x3b2ac5cc	0.0026057838
124	0xbb9b6345	-0.0047420585
125	0x3addeb4d	0.0016931087
126	0xbb2b250c	-0.002611461
127	0xbbe18976	-0.0068828417
128	0xbbd27167	-0.00642221
129	0xbab7ef1c	-0.0014033052
130	0x3adc1e0c	0.0016793623
131	0x3bc1c900	0.0059138536
132	0x39f12799	0.00045996605
133	0x3aac54cd	0.0013147831
134	0xbc13e6e4	-0.009027217
135	0xbbceb722	-0.006308452
136	0xbb52b9af	-0.0032154133
137	0x3a9c00e0	0.0011902116
138	0xbb1238c7	-0.0022311674
139	0x3b786a64	0.003790521
140	0xba218c91	-0.00061626086
141	0xbc035fa7	-0.008018411
142	0xbbe04797	-0.0068444717
143	0x39359407	0.0001731665
144	0xbc2a5bdb	-0.010397877
145	0xbc0f6032	-0.008750962
146	0xbc168ba2	-0.0091885645
147	0xbbe21177	-0.0068990546
148	0xbb92172c	-0.0044583287
149	0xbb6df5e5	-0.0036309895
150	0xbbfb48b0	-0.007668577
151	0xbc14fca2	-0.0090934355
152	0xbbc13e30	-0.005897306
153	0x3a9b1a78	0.001183345
154	0xbb2eec28	-0.0026691053
155	0x3b722666	0.0036949157
156	0x3b04aa42	0.0020243083
157	0xbb67e66f	-0.0035385152
158	0xbbf5c001	-0.0074996953
159	0xbb955efd	-0.0045584426
160	0xba185cfd	-0.0005812196
161	0x3be44ce6	0.006967175
162	0xbbd36a08	-0.006451849
163	0x396631f6	0.00021953121
164	0xbc0c6c74	-0.008570779
165	0x3b2d3c70	0.0026433729
166	0xbb349bb5	-0.002755863
167	0xbbfeb996	-0.0077735884
168	0xb9a9c876	-0.00032383547
169	0xbc13b206	-0.009014612
170	0x3831fcae	4.2435415e-05
171	0xbb5c4ed7	-0.0033616328
172	0xbc0b5645	-0.008504455
173	0xbbbd2d80	-0.0057732463
174	0xba92e2e8	-0.0011206539
175	0xbc0ec0aa	-0.008712927
176	0xbc192b2d	-0.009348673
177	0xbb3f80c7	-0.0029221044
178	0xba809e33	-0.0009812772
179	0xbbaa05a5	-0.005188661
180	0x3b13241e	0.0022451947
181	0x3b74cf91	0.0037355165
182	0x3b595e50	0.0033167787
183	0xbb184f5a	-0.0023240657
184	0xb8df3d46	-0.00010644882
185	0x3a98df12	0.001166316
186	0xbb7a093e	-0.0038152481
187	0x3b22071b	0.0024723473
188	0xbbb5869a	-0.0055397274
189	0xba7603f5	-0.0009384745
190	0x3b07c1ed	0.0020714954
191	0x3b0447d4	0.0020184414
192	0xbbf44ae5	-0.007455217
193	0xbba90b00	-0.005158782
194	0xbbbdf7dd	-0.00579737
195	0xbb68b3b9	-0.0035507514
196	0xbb8593bd	-0.0040764497
197	0xbbf8943c	-0.0075860303
198	0xbbcad5e1	-0.006190047
199	0x39e2de93	0.0004327191
200	0xbc0a7fd2	-0.008453326
201	0xb998b71b	-0.00029128123
202	0xbb9c57c8	-0.0047712065
203	0xbb093324	-0.0020935023
204	0xbb32b233	-0.002726686
205	0xbb88661d	-0.0041625635
206	0x3a7b3f6c	0.0009584341
207	0xbad41c71	-0.0016182793
208	0xbb6fb774	-0.0036577852
209	0xbbf30e4b	-0.0074174753
210	0x3b3745cd	0.0027965188
211	0x3b148c53	0.0022666648
212	0xb779305d	-1.4852817e-05
213	0x3b38d797	0.0028204673
214	0xbb73da48	-0.0037208963
215	0xb9a465a1	-0.00031356237
216	0x3adf138c	0.0017019375
217	0xbb8d2e17	-0.004308473
218	0xbbc65f91	-0.006053873
219	0x3b778fde	0.003777496
220	0xbc16bc04	-0.0092001
221	0x3ae4595f	0.0017421654
222	0xbb817ed6	-0.0039518876
223	0xbb440091	-0.0029907564
224	0xbaa8848a	-0.0012856883
225	0xbac02041	-0.001465805
226	0xbab1a854	-0.0013554194
227	0x3b276262	0.0025540818
228	0xbb9b02a6	-0.0047305403
229	0xb930a0f5	-0.00016844629
230	0xbbc93053	-0.006139794
231	0xbb849dff	-0.004047155
232	0xbb12c800	-0.0022397041
233	0xbb133c2b	-0.0022466283
234	0xbbb289e7	-0.005448568
235	0xbb3d995a	-0.0028930516
236	0xbbb3e224	-0.0054896045
237	0x3acf3896	0.0015809711
238	0xbae4dd35	-0.0017460944
239	0xbbfd47b2	-0.007729494
240	0xbb8cb97a	-0.0042945715
241	0xba10f85f	-0.0005530174
242	0xbbcf1f24	-0.006320851
243	0xbbe30fc3	-0.006929369
244	0xb8e04140	-0.00010693306
245	0xbbc4f7ca	-0.006010984
246	0x3a3633aa	0.00069504476
247	0xbc00b952	-0.007856684
248	0xbbdbf30c	-0.006712323
249	0xbb2b2e57	-0.002612015
250	0x39f8e479	0.00047472471
251	0xbb5deba6	-0.0033862381
252	0x3acacf5e	0.0015473177
253	0xbbed1322	-0.007234947
254	0xb92a1c43	-0.00016222992
255	0xb934f4d9	-0.0001725735

fc.bias f4 [2]
0	0xbc11b1e2	-0.008892508
1	0x3ac4658c	0.0014983877
